…
mode=False)\n    (3): Conv2d(40, 80, kernel_size=(3, 3), stride=(1, 1), padding=(1, 1))\n    (4): ReLU()\n    (5): MaxPool2d(kernel_size=(5, 1), stride=(5, 1), padding=0, dilation=1, ceil_mode=False)\n  )\n  (flatten): Flatten(start_dim=1, end_dim=-1)\n  (dense_layers): Sequential(\n    (0): Linear(in_features=25600, out_features=10, bias=True)\n  )\n)\n------------------------------------------------------------------------\n      Layer (type)         Output Shape         Param #     Tr. Param #\n========================================================================\n          Conv2d-1     [1, 40, 400, 20]             400             400\n            ReLU-2     [1, 40, 400, 20]               0               0\n       MaxPool2d-3      [1, 40, 80, 20]               0               0\n          Conv2d-4      [1, 80, 80, 20]          28,880          28,880\n            ReLU-5      [1, 80, 80, 20]               0               0\n       MaxPool2d-6      [1, 80, 16, 20]               0               0\n         Flatten-7           [1, 25600]               0               0\n          Linear-8              [1, 10]         256,010         256,010\n========================================================================\nTotal params: 285,290\nTrainable params: 285,290\nNon-trainable params: 0\n------------------------------------------------------------------------\n\n\n\n\nBuilding the feedforward neural network (FNN)\nTaken from the 2nd notebook of the course\n\nclass ProteinLoc_FNN(torch.nn.Module):\n    def __init__(se
…
nt(pms.summary(model, torch.zeros(1,400,20).to(device), show_input=True))\n\nProteinLoc_FNN(\n  (flatten): Flatten(start_dim=1, end_dim=-1)\n  (layers): Sequential(\n    (0): Linear(in_features=8000, out_features=80, bias=True)\n    (1): ReLU()\n    (2): Dropout(p=0.25, inplace=False)\n    (3): Linear(in_features=80, out_features=10, bias=True)\n  )\n)\n-----------------------------------------------------------------------\n      Layer (type)         Input Shape         Param #     Tr. Param #\n=======================================================================\n         Flatten-1        [1, 400, 20]               0               0\n          Linear-2           [1, 8000]         640,080         640,080\n            ReLU-3             [1, 80]               0               0\n         Dropout-4             [1, 80]               0               0\n          Linear-5             [1, 80]             810             810\n=======================================================================\nTotal params: 640,890\nTrainable params: 640,890\nNon-trainable params: 0\n-----------------------------------------------------------------------\n\n\n\n\nTraining/validation and plotting functions\n\ndef train(dataloader, model, loss_fn, optimizer, echo=True, echo_batch=False):\n    \n    size = len(datalo
…
