…
eaf=best_param.best_params_['rfc__min_samples_leaf'], \n                                    min_samples_split=best_param.best_params_['rfc__min_samples_split'], \n                                    n_estimators=best_param.best_params_['rfc__n_estimators'], \n                                    n_jobs=-1, random_state=0)\n\n    clf.fit(X_train_scaled, y_train)\n\n    ## return proba\n    y_pred = clf.predict_proba(X_test_scaled)\n    probs = y_pred[:,1]\n    return pd.Series(probs, index=X_test.index)\n\npred = new_connections_predictions(X_train, y_train, X_test, y_test, tune=False)\npred\n\n(0, 9)          0.015451\n(0, 19)         0.052432\n(0, 20)         0.332290\n(0, 35)         0.006085\n(0, 38)         0.009872\n                  ...   \n(998, 999)      0.014456\n(1000, 1002)    0.011865\n(1000, 1003)    0.011865\n(1000, 1004)    0.011865\n(1001, 1002)    0.012798\nLength: 122112, dtype: float64\n\n\n\nPerformance evaluation\n\nmask = ~y.isna()\nX_known, y_known = X[mask], y[mask]\n\npipeline = Pipeline([\n    ('scaler', StandardScaler()),\n    ('rfc', RandomForestClassifier(random_state=0))\n])\n\nmetrics = ['roc_auc', 'average_precision', 'balanced_accuracy']\nperfname = ['AUROC', 'AUPRC', 'Balanced Accuracy']\n\nfor perf, name in zip(metrics, perfname):\n  scores = cross_val_score(pipeline, X_known, y_known, cv=5, scoring=perf)\n  print(f\"Averaged {name}: {scores.mean():.3f}\")\n\nAveraged AUROC: 0.888\nAveraged AUPRC: 0.736\nAveraged Balanced Accuracy: 0.786"
…
mode=False)\n    (3): Conv2d(40, 80, kernel_size=(3, 3), stride=(1, 1), padding=(1, 1))\n    (4): ReLU()\n    (5): MaxPool2d(kernel_size=(5, 1), stride=(5, 1), padding=0, dilation=1, ceil_mode=False)\n  )\n  (flatten): Flatten(start_dim=1, end_dim=-1)\n  (dense_layers): Sequential(\n    (0): Linear(in_features=25600, out_features=10, bias=True)\n  )\n)\n------------------------------------------------------------------------\n      Layer (type)         Output Shape         Param #     Tr. Param #\n========================================================================\n          Conv2d-1     [1, 40, 400, 20]             400             400\n            ReLU-2     [1, 40, 400, 20]               0               0\n       MaxPool2d-3      [1, 40, 80, 20]               0               0\n          Conv2d-4      [1, 80, 80, 20]          28,880          28,880\n            ReLU-5      [1, 80, 80, 20]               0               0\n       MaxPool2d-6      [1, 80, 16, 20]               0               0\n         Flatten-7           [1, 25600]               0               0\n          Linear-8              [1, 10]         256,010         256,010\n========================================================================\nTotal params: 285,290\nTrainable params: 285,290\nNon-trainable params: 0\n------------------------------------------------------------------------\n\n\n\n\nBuilding the feedforward neural network (FNN)\nTaken from the 2nd notebook of the course\n\nclass ProteinLoc_FNN(torch.nn.Module):\n    def __init__(se
…
nt(pms.summary(model, torch.zeros(1,400,20).to(device), show_input=True))\n\nProteinLoc_FNN(\n  (flatten): Flatten(start_dim=1, end_dim=-1)\n  (layers): Sequential(\n    (0): Linear(in_features=8000, out_features=80, bias=True)\n    (1): ReLU()\n    (2): Dropout(p=0.25, inplace=False)\n    (3): Linear(in_features=80, out_features=10, bias=True)\n  )\n)\n-----------------------------------------------------------------------\n      Layer (type)         Input Shape         Param #     Tr. Param #\n=======================================================================\n         Flatten-1        [1, 400, 20]               0               0\n          Linear-2           [1, 8000]         640,080         640,080\n            ReLU-3             [1, 80]               0               0\n         Dropout-4             [1, 80]               0               0\n          Linear-5             [1, 80]             810             810\n=======================================================================\nTotal params: 640,890\nTrainable params: 640,890\nNon-trainable params: 0\n-----------------------------------------------------------------------"
  },
  {
    "objectID": "cnn_vs_fnn.html#trainingvalidation-and-plotting-functions",
    "href": "cnn_vs_fnn.html#trainingvalidation-and-plotting-functions",
    "title": "Predicting protein subcellular localizations based on sequence information",
…
